…
TAM with kernel_size 3.
=> Processing this stage with 4 blocks residual
TAM with kernel_size 3.
TAM with kernel_size 3.
TAM with kernel_size 3.
TAM with kernel_size 3.
=> Processing this stage with 6 blocks residual
TAM with kernel_size 3.
TAM with kernel_size 3.
TAM with kernel_size 3.
TAM with kernel_size 3.
TAM with kernel_size 3.
TAM with kernel_size 3.
=> Processing this stage with 3 blocks residual
TAM with kernel_size 3.
TAM with kernel_size 3.
TAM with kernel_size 3.
model epoch 50 best prec@1: 96.80147933657447
Model Structure
DataParallel(
  (module): TSN(
    (base_model): ResNet(
      (conv1): Conv2d(3, 64, kernel_size=(7, 7), stride=(2, 2), padding=(3, 3), bias=False)
      (bn1): BatchNorm2d(64, eps=1e-05, momentum=0.1, affine=True, track_running_stats=True)
      (relu): ReLU(inplace=True)
      (maxpool): MaxPool2d(kernel_size=3, stride=2, padding=1, dilation=1, ceil_mode=False)
      (layer1): Sequential(
        (0): TemporalBottleneck(
          (net): Bottleneck(
            (conv1): Conv2d(64, 64, kernel_size=(1, 1), stride=(1, 1), bias=False)
            (bn1): BatchNorm2d(64, eps=1e-05, momentum=0.1, affine=True, track_running_stats=True)
            (conv2): Conv2d(64, 64, kernel_size=(3, 3), stride=(1, 1), padding=(1, 1), bias=False)
            (bn2): BatchNorm2d(64, eps=1e-05, momentum=0.1, affine=True, track_running_stats=True)
            (conv3): Conv2d(64, 256, kernel_size=(1, 1), stride=(1, 1), bias=False)
            (bn3): BatchNorm2d(256, eps=1e-05, momentum=0.1, affine=True, track_running_stats=True)
            (relu): ReLU(inplace=True)
            (downsample): Sequential(
              (0): Conv2d(64, 256, kernel_size=(1, 1), stride=(1, 1), bias=False)
              (1): BatchNorm2d(256, eps=1e-05, momentum=0.1, affine=True, track_running_stats=True)
            )
          )
          (tam): TAM(
            (G): Sequential(
              (0): Linear(in_features=16, out_features=32, bias=False)
              (1): BatchNorm1d(32, eps=1e-05, momentum=0.1, affine=True, track_running_stats=True)
              (2): ReLU(inplace=True)
              (3): Linear(in_features=32, out_features=3, bias=False)
              (4): Softmax(dim=-1)
            )
            (L): Sequential(
              (0): Conv1d(64, 16, kernel_size=(3,), stride=(1,), padding=(1,), bias=False)
              (1): BatchNorm1d(16, eps=1e-05, momentum=0.1, affine=True, track_running_stats=True)
              (2): ReLU(inplace=True)
              (3): Conv1d(16, 64, kernel_size=(1,), stride=(1,), bias=False)
              (4): Sigmoid()
            )
          )
        )
        (1): TemporalBottleneck(
          (net): Bottleneck(
            (conv1): Conv2d(256, 64, kernel_size=(1, 1), stride=(1, 1), bias=False)
            (bn1): BatchNorm2d(64, eps=1e-05, momentum=0.1, affine=True, track_running_stats=True)
            (conv2): Conv2d(64, 64, kernel_size=(3, 3), stride=(1, 1), padding=(1, 1), bias=False)
            (bn2): BatchNorm2d(64, eps=1e-05, momentum=0.1, affine=True, track_running_stats=True)
            (conv3): Conv2d(64, 256, kernel_size=(1, 1), stride=(1, 1), bias=False)
            (bn3): BatchNorm2d(256, eps=1e-05, momentum=0.1, affine=True, track_running_stats=True)
            (relu): ReLU(inplace=True)
          )
          (tam): TAM(
            (G): Sequential(
              (0): Linear(in_features=16, out_features=32, bias=False)
              (1): BatchNorm1d(32, eps=1e-05, momentum=0.1, affine=True, track_running_stats=True)
              (2): ReLU(inplace=True)
              (3): Linear(in_features=32, out_features=3, bias=False)
              (4): Softmax(dim=-1)
            )
            (L): Sequential(
              (0): Conv1d(64, 16, kernel_size=(3,), stride=(1,), padding=(1,), bias=False)
              (1): BatchNorm1d(16, eps=1e-05, momentum=0.1, affine=True, track_running_stats=True)
              (2): ReLU(inplace=True)
              (3): Conv1d(16, 64, kernel_size=(1,), stride=(1,), bias=False)
              (4): Sigmoid()
            )
          )
        )
        (2): TemporalBottleneck(
          (net): Bottleneck(
            (conv1): Conv2d(256, 64, kernel_size=(1, 1), stride=(1, 1), bias=False)
            (bn1): BatchNorm2d(64, eps=1e-05, momentum=0.1, affine=True, track_running_stats=True)
            (conv2): Conv2d(64, 64, kernel_size=(3, 3), stride=(1, 1), padding=(1, 1), bias=False)
            (bn2): BatchNorm2d(64, eps=1e-05, momentum=0.1, affine=True, track_running_stats=True)
            (conv3): Conv2d(64, 256, kernel_size=(1, 1), stride=(1, 1), bias=False)
            (bn3): BatchNorm2d(256, eps=1e-05, momentum=0.1, affine=True, track_running_stats=True)
            (relu): ReLU(inplace=True)
          )
          (tam): TAM(
            (G): Sequential(
              (0): Linear(in_features=16, out_features=32, bias=False)
              (1): BatchNorm1d(32, eps=1e-05, momentum=0.1, affine=True, track_running_stats=True)
              (2): ReLU(inplace=True)
              (3): Linear(in_features=32, out_features=3, bias=False)
              (4): Softmax(dim=-1)
            )
            (L): Sequential(
              (0): Conv1d(64, 16, kernel_size=(3,), stride=(1,), padding=(1,), bias=False)
              (1): BatchNorm1d(16, eps=1e-05, momentum=0.1, affine=True, track_running_stats=True)
              (2): ReLU(inplace=True)
              (3): Conv1d(16, 64, kernel_size=(1,), stride=(1,), bias=False)
              (4): Sigmoid()
            )
          )
        )
      )
      (layer2): Sequential(
        (0): TemporalBottleneck(
          (net): Bottleneck(
            (conv1): Conv2d(256, 128, kernel_size=(1, 1), stride=(1, 1), bias=False)
            (bn1): BatchNorm2d(128, eps=1e-05, momentum=0.1, affine=True, track_running_stats=True)
            (conv2): Conv2d(128, 128, kernel_size=(3, 3), stride=(2, 2), padding=(1, 1), bias=False)
            (bn2): BatchNorm2d(128, eps=1e-05, momentum=0.1, affine=True, track_running_stats=True)
            (conv3): Conv2d(128, 512, kernel_size=(1, 1), stride=(1, 1), bias=False)
            (bn3): BatchNorm2d(512, eps=1e-05, momentum=0.1, affine=True, track_running_stats=True)
            (relu): ReLU(inplace=True)
            (downsample): Sequential(
              (0): Conv2d(256, 512, kernel_size=(1, 1), stride=(2, 2), bias=False)
              (1): BatchNorm2d(512, eps=1e-05, momentum=0.1, affine=True, track_running_stats=True)
            )
          )
          (tam): TAM(
            (G): Sequential(
              (0): Linear(in_features=16, out_features=32, bias=False)
              (1): BatchNorm1d(32, eps=1e-05, momentum=0.1, affine=True, track_running_stats=True)
              (2): ReLU(inplace=True)
              (3): Linear(in_features=32, out_features=3, bias=False)
              (4): Softmax(dim=-1)
            )
            (L): Sequential(
              (0): Conv1d(128, 32, kernel_size=(3,), stride=(1,), padding=(1,), bias=False)
              (1): BatchNorm1d(32, eps=1e-05, momentum=0.1, affine=True, track_running_stats=True)
              (2): ReLU(inplace=True)
              (3): Conv1d(32, 128, kernel_size=(1,), stride=(1,), bias=False)
              (4): Sigmoid()
            )
          )
        )
        (1): TemporalBottleneck(
          (net): Bottleneck(
            (conv1): Conv2d(512, 128, kernel_size=(1, 1), stride=(1, 1), bias=False)
            (bn1): BatchNorm2d(128, eps=1e-05, momentum=0.1, affine=True, track_running_stats=True)
            (conv2): Conv2d(128, 128, kernel_size=(3, 3), stride=(1, 1), padding=(1, 1), bias=False)
            (bn2): BatchNorm2d(128, eps=1e-05, momentum=0.1, affine=True, track_running_stats=True)
            (conv3): Conv2d(128, 512, kernel_size=(1, 1), stride=(1, 1), bias=False)
            (bn3): BatchNorm2d(512, eps=1e-05, momentum=0.1, affine=True, track_running_stats=True)
            (relu): ReLU(inplace=True)
          )
          (tam): TAM(
            (G): Sequential(
              (0): Linear(in_features=16, out_features=32, bias=False)
              (1): BatchNorm1d(32, eps=1e-05, momentum=0.1, affine=True, track_running_stats=True)
              (2): ReLU(inplace=True)
              (3): Linear(in_features=32, out_features=3, bias=False)
              (4): Softmax(dim=-1)
            )
            (L): Sequential(
              (0): Conv1d(128, 32, kernel_size=(3,), stride=(1,), padding=(1,), bias=False)
              (1): BatchNorm1d(32, eps=1e-05, momentum=0.1, affine=True, track_running_stats=True)
              (2): ReLU(inplace=True)
              (3): Conv1d(32, 128, kernel_size=(1,), stride=(1,), bias=False)
              (4): Sigmoid()
            )
          )
        )
        (2): TemporalBottleneck(
          (net): Bottleneck(
            (conv1): Conv2d(512, 128, kernel_size=(1, 1), stride=(1, 1), bias=False)
            (bn1): BatchNorm2d(128, eps=1e-05, momentum=0.1, affine=True, track_running_stats=True)
            (conv2): Conv2d(128, 128, kernel_size=(3, 3), stride=(1, 1), padding=(1, 1), bias=False)
            (bn2): BatchNorm2d(128, eps=1e-05, momentum=0.1, affine=True, track_running_stats=True)
            (conv3): Conv2d(128, 512, kernel_size=(1, 1), stride=(1, 1), bias=False)
            (bn3): BatchNorm2d(512, eps=1e-05, momentum=0.1, affine=True, track_running_stats=True)
            (relu): ReLU(inplace=True)
          )
          (tam): TAM(
            (G): Sequential(
              (0): Linear(in_features=16, out_features=32, bias=False)
              (1): BatchNorm1d(32, eps=1e-05, momentum=0.1, affine=True, track_running_stats=True)
              (2): ReLU(inplace=True)
              (3): Linear(in_features=32, out_features=3, bias=False)
              (4): Softmax(dim=-1)
            )
            (L): Sequential(
              (0): Conv1d(128, 32, kernel_size=(3,), stride=(1,), padding=(1,), bias=False)
              (1): BatchNorm1d(32, eps=1e-05, momentum=0.1, affine=True, track_running_stats=True)
              (2): ReLU(inplace=True)
              (3): Conv1d(32, 128, kernel_size=(1,), stride=(1,), bias=False)
              (4): Sigmoid()
            )
          )
        )
        (3): TemporalBottleneck(
          (net): Bottleneck(
            (conv1): Conv2d(512, 128, kernel_size=(1, 1), stride=(1, 1), bias=False)
            (bn1): BatchNorm2d(128, eps=1e-05, momentum=0.1, affine=True, track_running_stats=True)
            (conv2): Conv2d(128, 128, kernel_size=(3, 3), stride=(1, 1), padding=(1, 1), bias=False)
            (bn2): BatchNorm2d(128, eps=1e-05, momentum=0.1, affine=True, track_running_stats=True)
            (conv3): Conv2d(128, 512, kernel_size=(1, 1), stride=(1, 1), bias=False)
            (bn3): BatchNorm2d(512, eps=1e-05, momentum=0.1, affine=True, track_running_stats=True)
            (relu): ReLU(inplace=True)
          )
          (tam): TAM(
            (G): Sequential(
              (0): Linear(in_features=16, out_features=32, bias=False)
              (1): BatchNorm1d(32, eps=1e-05, momentum=0.1, affine=True, track_running_stats=True)
              (2): ReLU(inplace=True)
              (3): Linear(in_features=32, out_features=3, bias=False)
              (4): Softmax(dim=-1)
            )
            (L): Sequential(
              (0): Conv1d(128, 32, kernel_size=(3,), stride=(1,), padding=(1,), bias=False)
              (1): BatchNorm1d(32, eps=1e-05, momentum=0.1, affine=True, track_running_stats=True)
              (2): ReLU(inplace=True)
              (3): Conv1d(32, 128, kernel_size=(1,), stride=(1,), bias=False)
              (4): Sigmoid()
            )
          )
        )
      )
      (layer3): Sequential(
        (0): TemporalBottleneck(
          (net): Bottleneck(
            (conv1): Conv2d(512, 256, kernel_size=(1, 1), stride=(1, 1), bias=False)
            (bn1): BatchNorm2d(256, eps=1e-05, momentum=0.1, affine=True, track_running_stats=True)
            (conv2): Conv2d(256, 256, kernel_size=(3, 3), stride=(2, 2), padding=(1, 1), bias=False)
            (bn2): BatchNorm2d(256, eps=1e-05, momentum=0.1, affine=True, track_running_stats=True)
            (conv3): Conv2d(256, 1024, kernel_size=(1, 1), stride=(1, 1), bias=False)
            (bn3): BatchNorm2d(1024, eps=1e-05, momentum=0.1, affine=True, track_running_stats=True)
            (relu): ReLU(inplace=True)
            (downsample): Sequential(
              (0): Conv2d(512, 1024, kernel_size=(1, 1), stride=(2, 2), bias=False)
              (1): BatchNorm2d(1024, eps=1e-05, momentum=0.1, affine=True, track_running_stats=True)
            )
          )
          (tam): TAM(
            (G): Sequential(
              (0): Linear(in_features=16, out_features=32, bias=False)
              (1): BatchNorm1d(32, eps=1e-05, momentum=0.1, affine=True, track_running_stats=True)
              (2): ReLU(inplace=True)
              (3): Linear(in_features=32, out_features=3, bias=False)
              (4): Softmax(dim=-1)
            )
            (L): Sequential(
              (0): Conv1d(256, 64, kernel_size=(3,), stride=(1,), padding=(1,), bias=False)
              (1): BatchNorm1d(64, eps=1e-05, momentum=0.1, affine=True, track_running_stats=True)
              (2): ReLU(inplace=True)
              (3): Conv1d(64, 256, kernel_size=(1,), stride=(1,), bias=False)
              (4): Sigmoid()
            )
          )
        )
        (1): TemporalBottleneck(
          (net): Bottleneck(
            (conv1): Conv2d(1024, 256, kernel_size=(1, 1), stride=(1, 1), bias=False)
            (bn1): BatchNorm2d(256, eps=1e-05, momentum=0.1, affine=True, track_running_stats=True)
            (conv2): Conv2d(256, 256, kernel_size=(3, 3), stride=(1, 1), padding=(1, 1), bias=False)
            (bn2): BatchNorm2d(256, eps=1e-05, momentum=0.1, affine=True, track_running_stats=True)
            (conv3): Conv2d(256, 1024, kernel_size=(1, 1), stride=(1, 1), bias=False)
            (bn3): BatchNorm2d(1024, eps=1e-05, momentum=0.1, affine=True, track_running_stats=True)
            (relu): ReLU(inplace=True)
          )
          (tam): TAM(
            (G): Sequential(
              (0): Linear(in_features=16, out_features=32, bias=False)
              (1): BatchNorm1d(32, eps=1e-05, momentum=0.1, affine=True, track_running_stats=True)
              (2): ReLU(inplace=True)
              (3): Linear(in_features=32, out_features=3, bias=False)
              (4): Softmax(dim=-1)
            )
            (L): Sequential(
              (0): Conv1d(256, 64, kernel_size=(3,), stride=(1,), padding=(1,), bias=False)
              (1): BatchNorm1d(64, eps=1e-05, momentum=0.1, affine=True, track_running_stats=True)
              (2): ReLU(inplace=True)
              (3): Conv1d(64, 256, kernel_size=(1,), stride=(1,), bias=False)
              (4): Sigmoid()
            )
          )
        )
        (2): TemporalBottleneck(
          (net): Bottleneck(
            (conv1): Conv2d(1024, 256, kernel_size=(1, 1), stride=(1, 1), bias=False)
            (bn1): BatchNorm2d(256, eps=1e-05, momentum=0.1, affine=True, track_running_stats=True)
            (conv2): Conv2d(256, 256, kernel_size=(3, 3), stride=(1, 1), padding=(1, 1), bias=False)
            (bn2): BatchNorm2d(256, eps=1e-05, momentum=0.1, affine=True, track_running_stats=True)
            (conv3): Conv2d(256, 1024, kernel_size=(1, 1), stride=(1, 1), bias=False)
            (bn3): BatchNorm2d(1024, eps=1e-05, momentum=0.1, affine=True, track_running_stats=True)
            (relu): ReLU(inplace=True)
          )
          (tam): TAM(
            (G): Sequential(
              (0): Linear(in_features=16, out_features=32, bias=False)
              (1): BatchNorm1d(32, eps=1e-05, momentum=0.1, affine=True, track_running_stats=True)
              (2): ReLU(inplace=True)
              (3): Linear(in_features=32, out_features=3, bias=False)
              (4): Softmax(dim=-1)
            )
            (L): Sequential(
              (0): Conv1d(256, 64, kernel_size=(3,), stride=(1,), padding=(1,), bias=False)
              (1): BatchNorm1d(64, eps=1e-05, momentum=0.1, affine=True, track_running_stats=True)
              (2): ReLU(inplace=True)
              (3): Conv1d(64, 256, kernel_size=(1,), stride=(1,), bias=False)
              (4): Sigmoid()
            )
          )
        )
        (3): TemporalBottleneck(
          (net): Bottleneck(
            (conv1): Conv2d(1024, 256, kernel_size=(1, 1), stride=(1, 1), bias=False)
            (bn1): BatchNorm2d(256, eps=1e-05, momentum=0.1, affine=True, track_running_stats=True)
            (conv2): Conv2d(256, 256, kernel_size=(3, 3), stride=(1, 1), padding=(1, 1), bias=False)
            (bn2): BatchNorm2d(256, eps=1e-05, momentum=0.1, affine=True, track_running_stats=True)
            (conv3): Conv2d(256, 1024, kernel_size=(1, 1), stride=(1, 1), bias=False)
            (bn3): BatchNorm2d(1024, eps=1e-05, momentum=0.1, affine=True, track_running_stats=True)
            (relu): ReLU(inplace=True)
          )
          (tam): TAM(
            (G): Sequential(
              (0): Linear(in_features=16, out_features=32, bias=False)
              (1): BatchNorm1d(32, eps=1e-05, momentum=0.1, affine=True, track_running_stats=True)
              (2): ReLU(inplace=True)
              (3): Linear(in_features=32, out_features=3, bias=False)
              (4): Softmax(dim=-1)
            )
            (L): Sequential(
              (0): Conv1d(256, 64, kernel_size=(3,), stride=(1,), padding=(1,), bias=False)
              (1): BatchNorm1d(64, eps=1e-05, momentum=0.1, affine=True, track_running_stats=True)
              (2): ReLU(inplace=True)
              (3): Conv1d(64, 256, kernel_size=(1,), stride=(1,), bias=False)
              (4): Sigmoid()
            )
          )
        )
        (4): TemporalBottleneck(
          (net): Bottleneck(
            (conv1): Conv2d(1024, 256, kernel_size=(1, 1), stride=(1, 1), bias=False)
            (bn1): BatchNorm2d(256, eps=1e-05, momentum=0.1, affine=True, track_running_stats=True)
            (conv2): Conv2d(256, 256, kernel_size=(3, 3), stride=(1, 1), padding=(1, 1), bias=False)
            (bn2): BatchNorm2d(256, eps=1e-05, momentum=0.1, affine=True, track_running_stats=True)
            (conv3): Conv2d(256, 1024, kernel_size=(1, 1), stride=(1, 1), bias=False)
            (bn3): BatchNorm2d(1024, eps=1e-05, momentum=0.1, affine=True, track_running_stats=True)
            (relu): ReLU(inplace=True)
          )
          (tam): TAM(
            (G): Sequential(
              (0): Linear(in_features=16, out_features=32, bias=False)
              (1): BatchNorm1d(32, eps=1e-05, momentum=0.1, affine=True, track_running_stats=True)
              (2): ReLU(inplace=True)
              (3): Linear(in_features=32, out_features=3, bias=False)
              (4): Softmax(dim=-1)
            )
            (L): Sequential(
              (0): Conv1d(256, 64, kernel_size=(3,), stride=(1,), padding=(1,), bias=False)
              (1): BatchNorm1d(64, eps=1e-05, momentum=0.1, affine=True, track_running_stats=True)
              (2): ReLU(inplace=True)
              (3): Conv1d(64, 256, kernel_size=(1,), stride=(1,), bias=False)
              (4): Sigmoid()
            )
          )
        )
        (5): TemporalBottleneck(
          (net): Bottleneck(
            (conv1): Conv2d(1024, 256, kernel_size=(1, 1), stride=(1, 1), bias=False)
            (bn1): BatchNorm2d(256, eps=1e-05, momentum=0.1, affine=True, track_running_stats=True)
            (conv2): Conv2d(256, 256, kernel_size=(3, 3), stride=(1, 1), padding=(1, 1), bias=False)
            (bn2): BatchNorm2d(256, eps=1e-05, momentum=0.1, affine=True, track_running_stats=True)
            (conv3): Conv2d(256, 1024, kernel_size=(1, 1), stride=(1, 1), bias=False)
            (bn3): BatchNorm2d(1024, eps=1e-05, momentum=0.1, affine=True, track_running_stats=True)
            (relu): ReLU(inplace=True)
          )
          (tam): TAM(
            (G): Sequential(
              (0): Linear(in_features=16, out_features=32, bias=False)
              (1): BatchNorm1d(32, eps=1e-05, momentum=0.1, affine=True, track_running_stats=True)
              (2): ReLU(inplace=True)
              (3): Linear(in_features=32, out_features=3, bias=False)
              (4): Softmax(dim=-1)
            )
            (L): Sequential(
              (0): Conv1d(256, 64, kernel_size=(3,), stride=(1,), padding=(1,), bias=False)
              (1): BatchNorm1d(64, eps=1e-05, momentum=0.1, affine=True, track_running_stats=True)
              (2): ReLU(inplace=True)
              (3): Conv1d(64, 256, kernel_size=(1,), stride=(1,), bias=False)
              (4): Sigmoid()
            )
          )
        )
      )
      (layer4): Sequential(
        (0): TemporalBottleneck(
          (net): Bottleneck(
            (conv1): Conv2d(1024, 512, kernel_size=(1, 1), stride=(1, 1), bias=False)
            (bn1): BatchNorm2d(512, eps=1e-05, momentum=0.1, affine=True, track_running_stats=True)
            (conv2): Conv2d(512, 512, kernel_size=(3, 3), stride=(2, 2), padding=(1, 1), bias=False)
            (bn2): BatchNorm2d(512, eps=1e-05, momentum=0.1, affine=True, track_running_stats=True)
            (conv3): Conv2d(512, 2048, kernel_size=(1, 1), stride=(1, 1), bias=False)
            (bn3): BatchNorm2d(2048, eps=1e-05, momentum=0.1, affine=True, track_running_stats=True)
            (relu): ReLU(inplace=True)
            (downsample): Sequential(
              (0): Conv2d(1024, 2048, kernel_size=(1, 1), stride=(2, 2), bias=False)
              (1): BatchNorm2d(2048, eps=1e-05, momentum=0.1, affine=True, track_running_stats=True)
            )
          )
          (tam): TAM(
            (G): Sequential(
              (0): Linear(in_features=16, out_features=32, bias=False)
              (1): BatchNorm1d(32, eps=1e-05, momentum=0.1, affine=True, track_running_stats=True)
              (2): ReLU(inplace=True)
              (3): Linear(in_features=32, out_features=3, bias=False)
              (4): Softmax(dim=-1)
            )
            (L): Sequential(
              (0): Conv1d(512, 128, kernel_size=(3,), stride=(1,), padding=(1,), bias=False)
              (1): BatchNorm1d(128, eps=1e-05, momentum=0.1, affine=True, track_running_stats=True)
              (2): ReLU(inplace=True)
              (3): Conv1d(128, 512, kernel_size=(1,), stride=(1,), bias=False)
              (4): Sigmoid()
            )
          )
        )
        (1): TemporalBottleneck(
          (net): Bottleneck(
            (conv1): Conv2d(2048, 512, kernel_size=(1, 1), stride=(1, 1), bias=False)
            (bn1): BatchNorm2d(512, eps=1e-05, momentum=0.1, affine=True, track_running_stats=True)
            (conv2): Conv2d(512, 512, kernel_size=(3, 3), stride=(1, 1), padding=(1, 1), bias=False)
            (bn2): BatchNorm2d(512, eps=1e-05, momentum=0.1, affine=True, track_running_stats=True)
            (conv3): Conv2d(512, 2048, kernel_size=(1, 1), stride=(1, 1), bias=False)
            (bn3): BatchNorm2d(2048, eps=1e-05, momentum=0.1, affine=True, track_running_stats=True)
            (relu): ReLU(inplace=True)
          )
          (tam): TAM(
            (G): Sequential(
              (0): Linear(in_features=16, out_features=32, bias=False)
              (1): BatchNorm1d(32, eps=1e-05, momentum=0.1, affine=True, track_running_stats=True)
              (2): ReLU(inplace=True)
              (3): Linear(in_features=32, out_features=3, bias=False)
              (4): Softmax(dim=-1)
            )
            (L): Sequential(
              (0): Conv1d(512, 128, kernel_size=(3,), stride=(1,), padding=(1,), bias=False)
              (1): BatchNorm1d(128, eps=1e-05, momentum=0.1, affine=True, track_running_stats=True)
              (2): ReLU(inplace=True)
              (3): Conv1d(128, 512, kernel_size=(1,), stride=(1,), bias=False)
              (4): Sigmoid()
            )
          )
        )
        (2): TemporalBottleneck(
          (net): Bottleneck(
            (conv1): Conv2d(2048, 512, kernel_size=(1, 1), stride=(1, 1), bias=False)
            (bn1): BatchNorm2d(512, eps=1e-05, momentum=0.1, affine=True, track_running_stats=True)
            (conv2): Conv2d(512, 512, kernel_size=(3, 3), stride=(1, 1), padding=(1, 1), bias=False)
            (bn2): BatchNorm2d(512, eps=1e-05, momentum=0.1, affine=True, track_running_stats=True)
            (conv3): Conv2d(512, 2048, kernel_size=(1, 1), stride=(1, 1), bias=False)
            (bn3): BatchNorm2d(2048, eps=1e-05, momentum=0.1, affine=True, track_running_stats=True)
            (relu): ReLU(inplace=True)
          )
          (tam): TAM(
            (G): Sequential(
              (0): Linear(in_features=16, out_features=32, bias=False)
              (1): BatchNorm1d(32, eps=1e-05, momentum=0.1, affine=True, track_running_stats=True)
              (2): ReLU(inplace=True)
              (3): Linear(in_features=32, out_features=3, bias=False)
              (4): Softmax(dim=-1)
            )
            (L): Sequential(
              (0): Conv1d(512, 128, kernel_size=(3,), stride=(1,), padding=(1,), bias=False)
              (1): BatchNorm1d(128, eps=1e-05, momentum=0.1, affine=True, track_running_stats=True)
              (2): ReLU(inplace=True)
              (3): Conv1d(128, 512, kernel_size=(1,), stride=(1,), bias=False)
              (4): Sigmoid()
            )
          )
        )
      )
      (avgpool): AdaptiveAvgPool2d(output_size=1)
      (fc): Dropout(p=0.8, inplace=False)
    )
    (new_fc): Linear(in_features=2048, out_features=101, bias=True)
    (consensus): ConsensusModule()
  )
)
2025-05-27 20:44:41,596 - 10 - basics.py - tta_standard - TTA Epoch1: [0/473]	Time 11.784 (11.784)	Loss reg 13.2129 (13.2129)	Loss consis 3.8474 (3.8474)	Prec@1 37.500 (37.500)	Prec@5 50.000 (50.000)
2025-05-27 20:44:43,480 - 10 - basics.py - tta_standard - TTA Epoch1: [1/473]	Time 1.884 (6.834)	Loss reg 12.1681 (12.6905)	Loss consis 3.9317 (3.8895)	Prec@1 37.500 (37.500)	Prec@5 50.000 (50.000)
…
